…
smarthome_turtlebot_lidar_dqn.py:116: UserWarning: Update your `Dense` call to the Keras 2 API: `Dense(300, kernel_initializer="lecun_uniform")`
  model.add(Dense(layerSize, init='lecun_uniform'))
smarthome_turtlebot_lidar_dqn.py:121: UserWarning: Update your `Dense` call to the Keras 2 API: `Dense(21, kernel_initializer="lecun_uniform")`
  model.add(Dense(self.output_size, init='lecun_uniform'))
_________________________________________________________________
Layer (type)                 Output Shape              Param #   
=================================================================
dense_1 (Dense)              (None, 300)               11700     
_________________________________________________________________
activation_1 (Activation)    (None, 300)               0         
_________________________________________________________________
dense_2 (Dense)              (None, 300)               90300     
_________________________________________________________________
activation_2 (Activation)    (None, 300)               0         
_________________________________________________________________
dense_3 (Dense)              (None, 21)                6321      
_________________________________________________________________
activation_3 (Activation)    (None, 21)                0         
=================================================================
Total params: 108,321
Trainable params: 108,321
Non-trainable params: 0
_________________________________________________________________
_________________________________________________________________
Layer (type)                 Output Shape              Param #   
=================================================================
dense_4 (Dense)              (None, 300)               11700     
_________________________________________________________________
activation_4 (Activation)    (None, 300)               0         
_________________________________________________________________
dense_5 (Dense)              (None, 300)               90300     
_________________________________________________________________
activation_5 (Activation)    (None, 300)               0         
_________________________________________________________________
dense_6 (Dense)              (None, 21)                6321      
_________________________________________________________________
activation_6 (Activation)    (None, 21)                0         
=================================================================
Total params: 108,321
Trainable params: 108,321
Non-trainable params: 0
_________________________________________________________________
[31m[gazebo-1] process has died [pid 1279, exit code 255, cmd /usr/local/gym/gym-gazebo/gym_gazebo/envs/installation/catkin_ws/src/gazebo_ros_pkgs/gazebo_ros/scripts/gzserver -e ode //usr/local/gym/gym-gazebo/gym_gazebo/envs/installation/../assets/worlds/human_in_home.world __name:=gazebo __log:=/root/.ros/log/ed4c3c64-c79f-11e9-9b5b-0242ac110003/gazebo-1.log].
…
